example-mini-app-1/model.onnx (onnx, 393951 bytes, 10 tensors)

conv.0.weight f4 [16, 1, 3, 3]
000000 98 83 22 be 03 c9 41 3d 18 cb 16 be 65 a4 d3 be
       -0.15870512 0.04731084 -0.14725912 -0.4133636
000010 86 0a 15 bf 1f 87 81 bc 44 f6 ef 3e 88 4f eb 3e
       -0.5821918 -0.015811501 0.46867573 0.45959115
000020 d5 c3 cb 3d 4f 59 99 bd 8d f5 3b 3e e9 d8 0d 3c
       0.09949461 -0.074877374 0.18355389 0.008657672
000030 b8 c4 ca 3d 5f 10 c3 3e de d9 d6 3e 47 93 64 3e
       0.099008024 0.38098428 0.41963094 0.22321807
000040 5c 94 28 be e5 2a 84 3e b4 bf c5 3e c8 db 8a 3c
       -0.16462845 0.25813976 0.3862282 0.016950503
000050 76 76 3e 3d e8 4a fb 3e 4f 29 a0 3d 96 37 87 be
       0.046499692 0.49080586 0.07820379 -0.26409596
000060 58 14 00 3e 69 e6 6e 3e 4e df c6 be 36 39 a8 be
       0.1250776 0.23330082 -0.38842243 -0.32856148
000070 f6 3f 0f bf cf 31 6a be 37 3e 83 be 3f 00 64 bb
       -0.5595697 -0.22870563 -0.25633404 -0.0034790186
000080 a8 35 f9 3e 60 78 c1 3e e0 23 fc 3e b1 88 38 be
       0.4867375 0.3778715 0.4924612 -0.18020894
000090 b6 e3 b3 3e d7 d5 a4 3c df a1 e8 be 00 a3 35 be
       0.35134667 0.020121498 -0.45435998 -0.17737961
0000a0 10 91 35 bd 52 ac 39 be 87 f3 3e be 52 a0 65 3e
       -0.044327796 -0.18132141 -0.18647586 0.22424439
0000b0 06 4a a1 3e 8e 60 ec 3d 6a 64 bc 3e 48 72 01 bf
       0.31501788 0.11541854 0.3679536 -0.50565004
0000c0 f8 1b ae be a6 97 ec 3e bf ea 86 bd 21 46 d7 be
       -0.34005713 0.4620945 -0.06587743 -0.42045692
0000d0 5a 11 5c 3d 65 de bf 3e c9 af d8 be 36 0e e4 be
       0.053727485 0.3747436 -0.42321613 -0.44542092
0000e0 a0 a1 30 3e a7 7c 69 bd 56 5a 30 3e c0 2f dc 3e
       0.17249155 -0.057003643 0.1722196 0.4300518
0000f0 d0 68 99 be 67 db 81 3e bb 4e f7 bd cf 06 e1 3d
       -0.29962778 0.25362703 -0.120755635 0.10987627
000100 47 54 0b bf 78 04 9e be 1c f0 81 3e 29 fc 78 be
       -0.5442547 -0.30862784 0.253785 -0.24314941
000110 80 44 da be dc 13 ed 3e 2b 95 b0 3d 70 6f cb 3e
       -0.42630386 0.46304214 0.086222015 0.39733458
000120 95 e4 9e 3e 1d 96 b5 3e fa 2b b3 3d c3 21 c4 3e
       0.3103377 0.3546609 0.08748622 0.38307008
000130 e7 e1 80 be 59 12 c3 be 0e c1 7f be f5 21 19 bf
       -0.2517235 -0.38099936 -0.24975988 -0.5981744
000140 21 d3 b0 3d 44 8e c4 3e d2 69 8a be 23 86 0a bd
       0.0863402 0.3838979 -0.2703386 -0.03381933
000150 36 0a f2 bc eb df 03 3f 58 b0 c3 be 0e 30 3f be
       -0.029545885 0.51513547 -0.38220477 -0.18670675
000160 9c 23 da 3d dc 0b c3 3e 10 19 22 be 16 dd 6b 3e
       0.10651323 0.38094985 -0.15829873 0.23033556
000170 90 73 c9 3e 8d 13 81 3e c0 33 88 bd 08 7b 1b be
       0.3934598 0.2521023 -0.066504955 -0.15183651
000180 f5 20 54 be bc 52 a2 be a4 8a ce 3e b0 5b 6b be
       -0.20715697 -0.31703746 0.4034015 -0.22984195
000190 29 d8 84 be c2 a0 fd 3e 80 cc d3 3d c9 7b 29 bf
       -0.25946167 0.4953671 0.1034174 -0.66204506
0001a0 77 6b 42 3d ce 64 48 3e 90 e9 98 be 6e ad 4f bc
       0.047465768 0.19569704 -0.29865694 -0.012675626
0001b0 5b ac b3 3d 80 92 9b be 00 83 2d bd 1b 53 d5 bd
       0.087731086 -0.30385208 -0.04236126 -0.10416242
0001c0 f6 e7 30 bd be e8 09 be 56 ea 07 bd 83 77 38 be
       -0.043189965 -0.1346769 -0.033182465 -0.1801434
0001d0 16 b2 7b bd 26 1e 97 3e a2 6d 02 3e 46 1b 72 3e
       -0.061449133 0.2951519 0.12737134 0.23643216
0001e0 4e b4 8f 3e 96 9e fb bd a1 5e 01 bf 17 a6 d3 be
       0.2806725 -0.12286107 -0.5053502 -0.41337654
0001f0 75 50 ea 3d e1 d6 72 3e b8 8a d0 bd 34 e9 91 3d
       0.11441127 0.23714782 -0.101827085 0.07124558
000200 be e4 53 3e be 46 b0 bd bf b3 9e 3e d6 af 81 be
       0.20692727 -0.08607243 0.3099651 -0.25329465
000210 42 26 44 be fd 2f d6 3e 9b b0 80 be 9f ce f0 3e
       -0.19155219 0.41833487 -0.2513474 0.4703264
000220 2d d2 ed 3e 48 db fc 3d 52 37 02 be 31 67 a1 be
       0.46449414 0.12346512 -0.12716416 -0.3152404
000230 24 fe 3a 3d db b8 f9 bd 19 36 ad 3d 35 f2 97 be
       0.045652524 -0.121934615 0.08457584 -0.29676977

conv.0.bias f4 [16]
000000 0b 1b b5 3d 57 55 56 bd bf 93 20 3d 1a 90 c4 3d
       0.08843049 -0.05232748 0.0392034 0.09597798
000010 f8 0e e6 3a 24 f1 54 bd dc 12 7f 3e f9 d2 1f 3e
       0.0017552068 -0.051987782 0.24909538 0.15607823
000020 a0 82 01 3e c4 3b 1d be 1e 6b 4d bc c5 d4 f9 3d
       0.12647486 -0.1535483 -0.012537746 0.12198786
000030 73 b6 16 be 15 4c 0f bd 2c 2c b5 3d e4 ea b2 bc
       -0.14718036 -0.034984667 0.08846316 -0.02184052

conv.3.weight f4 [32, 16, 3, 3]
000000 78 7c fe bd 0f 3a 8f bd 68 fa 0c be bd 10 3a bd
       -0.12426084 -0.06993496 -0.13767397 -0.04542612
000010 f7 9c b0 bd 9e 85 5c 3e fa f2 86 3c 91 72 45 be
       -0.08623689 0.21535346 0.016473282 -0.19281985
000020 fd 7c c1 bd 63 4a ac 3d 89 b4 19 3d 78 44 82 bd
       -0.09447668 0.08412626 0.037525687 -0.06360716
000030 6a 7b ba 3d c1 ee d5 3c 3b c9 92 bd e5 0f 97 bc
       0.091055706 0.026114823 -0.07167288 -0.018440196
000040 e4 3f d5 3c ef a2 da 3d 3d 72 65 bd 31 f7 86 3d
       0.026031442 0.10675608 -0.05601715 0.06590117
000050 b7 52 b5 bc 43 0e 8c 3d 36 8c 63 3d ec 58 b3 bb
       -0.022134168 0.06838658 0.055553637 -0.005473247
000060 d1 62 f8 3d cc 55 2e bd 61 53 b3 3d 72 23 41 bd
       0.12128223 -0.04256229 0.08756138 -0.047152944
000070 f5 0e bd bd 24 6e a8 bd 99 ba d0 3c b5 56 01 be
       -0.092313685 -0.08224133 0.025479602 -0.12630732
000080 85 10 29 3e 3d 3a 27 bd fb 1b 03 be bc c1 fa bd
       0.16510208 -0.040827025 -0.12803642 -0.12243983
000090 a1 b3 4c bd d3 fc b0 bd 54 7e 00 3d 7e e3 7b ba
       -0.049975995 -0.086419724 0.031370476 -0.0009608789
0000a0 53 59 8b 3e c7 c8 22 3d 34 f1 98 bd 31 06 b1 3c
       0.27216586 0.039742257 -0.07467881 0.021609398
0000b0 f5 fe 5b bd c1 61 71 bd 03 39 e6 3d 38 f8 76 3c
       -0.053709943 -0.058931116 0.11241343 0.015073828
0000c0 db 74 b8 3d 34 aa 98 3e b2 db 0c 3c 25 c0 23 bd
       0.090066634 0.29817355 0.008597301 -0.039978165
0000d0 d6 d6 07 3e 9f 47 c5 3d e0 98 0a bb 2c 4a 09 be
       0.13265547 0.09632801 -0.002114825 -0.134072
0000e0 0b 7b 12 bd 8c d2 94 3d 24 c4 ec bd b4 27 5f bd
       -0.035761874 0.07266721 -0.11560848 -0.054481223
0000f0 3d 1f 11 bd bb cc a9 bc 6a 89 0f be d5 a2 e6 bd
       -0.03543018 -0.020727506 -0.14017263 -0.112615265
000100 fe 1e 84 3d 48 59 d2 bd c4 b4 32 be e0 ff 9c 3d
       0.06451224 -0.10270935 -0.17451769 0.07665992
000110 28 b1 36 3e 61 35 08 3d 32 8b c6 bc 89 3c 1a 3e
       0.17841017 0.03325403 -0.024236295 0.15062155
000120 21 f8 32 bd 9e 37 52 3d 77 1d 59 bd 92 70 2b bc
       -0.043693665 0.051322572 -0.053006615 -0.010463851
000130 3b 79 94 bc 21 30 fd bc c6 bf 13 bc d0 89 63 3c
       -0.018124213 -0.030906739 -0.00901789 0.0138878375
000140 4f 0d a9 bd 0a de 0c 3d 79 dc 16 bd dc 9e c8 3c
       -0.082544915 0.03439144 -0.036831353 0.024489813
000150 1c d3 b2 bd 1c f3 89 3e 69 f0 40 3c d3 52 3d be
       -0.08731672 0.2694329 0.011776068 -0.18488626
000160 84 e6 90 3d af 2f 61 3e fa af 98 bc ec b1 bc bd
       0.07075217 0.21990846 -0.0186386 -0.092136234
000170 fc 90 ba bb c6 d9 bc bc df a9 c1 bb 2b ae 4f bd
       -0.005693553 -0.023053061 -0.005910143 -0.05070321
000180 06 ac af bd dd ec 2d 3b 3b 9e 8e bb 8e c3 40 3d
       -0.08577733 0.0026538887 -0.0043523586 0.047061495
000190 2d 80 87 3d c8 c4 0b 3d ad ea 44 3e 61 08 1b 3d
       0.066162445 0.034123212 0.19230147 0.037849788
0001a0 05 f6 47 3d de b7 49 3e 61 b0 98 3e 73 23 b1 3d
       0.048818607 0.19699046 0.29822066 0.086493395
0001b0 d6 10 1a bb bc d9 95 bd a8 7c 35 3d aa ca 89 3d
       -0.002350857 -0.0731692 0.044308335 0.06728108
0001c0 60 99 90 bc d4 a7 99 3d 1e ce 89 3d 83 8d 3a 3d
       -0.01765126 0.07502714 0.06728767 0.045545112
0001d0 6b b4 6a 3d 03 ac 8c bd fb 10 b7 3d 49 61 d3 3c
       0.057300966 -0.06868746 0.08938786 0.025803225
0001e0 8b de 1c 3d ad 11 2a 3e 9c 34 9e 3d fe 7e bd bd
       0.03829817 0.16608305 0.07724878 -0.092527375
0001f0 11 d6 0d be 46 0a 55 3d b2 da f2 3d 7a 10 33 bd
       -0.13851191 0.05201175 0.11858119 -0.043716885
000200 20 28 11 be cb cb ac 3d fe 34 b2 bd da fa 5d bd
       -0.14175463 0.08437308 -0.08701514 -0.05419431
000210 f3 cf f0 3d b0 73 ce 3c d0 d8 22 3d e3 96 cd bd
       0.11758413 0.025201648 0.03975755 -0.10038545
000220 20 e7 a5 3a ed 8b cb 3c ee c0 bd bd a6 3f e4 bd
       0.0012657382 0.024846995 -0.09265314 -0.111449525
000230 dd 62 38 be 80 81 b2 be bf c6 09 be 1c 63 84 3d
       -0.18006463 -0.34864426 -0.13454722 0.06464216
000240 e6 e7 49 3c 9c 3f ba bc 88 b2 50 bd 2a 6c 1f 3d
       0.012323355 -0.02273541 -0.05095151 0.038921513
000250 36 93 d6 3c 02 5a 6d 3d a4 70 81 3c 76 26 6e bd
       0.026193243 0.057947166 0.015800782 -0.058142148
000260 51 4e 16 3c 1f b2 05 3d 03 bd 29 bd a9 e8 80 bd
       0.0091739455 0.032640573 -0.04144002 -0.062943764
000270 3d b0 71 3d 45 02 69 3c 3d 5c 8c bd 59 2e 42 bd
       0.059005965 0.0142217325 -0.068535306 -0.04740748
000280 2e b3 ad bd ca 30 3e bd a3 e3 22 bc 65 d4 76 3d
       -0.084814414 -0.046433248 -0.009941968 0.06026115
000290 f6 11 94 bd a8 ad 04 bd 38 fd 18 3d 30 dc 9e bd
       -0.07229988 -0.032392174 0.037350863 -0.07756841
0002a0 ad 15 29 bd 0e f1 a9 3c a3 8c 2f 3d 94 b8 92 3d
       -0.041280437 0.020744827 0.04285873 0.07164112
0002b0 97 9a 74 3c e8 9d 36 3d cf 9e 3e bd 64 48 32 3c
       0.014929435 0.044584185 -0.04653817 0.010881517
0002c0 c2 a4 29 3d 04 4f a8 bd 18 d3 87 bd 1f ad 87 bd
       0.04141689 -0.08218196 -0.0663206 -0.06624817
0002d0 76 34 94 bc ed 9d 1c 3c 00 39 6e bc f6 c3 25 3d
       -0.018091422 0.009559137 -0.014539957 0.040470086
0002e0 91 59 26 bd b8 1c b0 bb 2e 0a 31 bd 68 7e 34 3d
       -0.04061276 -0.0053745173 -0.0432226 0.044065863
0002f0 6b f4 13 bc bb 8e f9 3c 49 ea 23 3c c0 5c 0a bd
       -0.009030442 0.030463567 0.010004588 -0.03377986
000300 0d 3a 5c 3d 53 91 6f bd 30 c5 4d bd 5a 76 a4 3c
       0.0537663 -0.0584882 -0.05023688 0.020075966
000310 1e d1 9b bc 84 09 32 bb 2a 16 b4 bd b3 26 7e bd
       -0.019020613 -0.0027166316 -0.0879329 -0.062048625
000320 af f5 d7 3b 7d 9a b4 bc 53 db 81 bc 5b 36 ff bc
       0.006590567 -0.022046322 -0.015851652 -0.031153848
000330 2e b4 3e 3d a7 86 02 3b 84 07 63 bc e1 40 16 bd
       0.04655855 0.0019916685 -0.013856772 -0.036682967
000340 cd 6e b7 bd 69 87 32 bd ef e2 87 3d 90 ff 05 bd
       -0.089566804 -0.04358617 0.06635081 -0.032714427
000350 d2 80 e4 3c b0 1e 72 3d 9b 0e 9a 3d cb f2 24 3d
       0.027893458 0.059111297 0.07522317 0.040270608
000360 f3 81 e3 bc b8 ab 43 bc 6f 8f 79 bd ca 98 07 bd
       -0.027771926 -0.011942796 -0.060927805 -0.033104695
000370 a2 b3 5b bd 36 9d 93 bc f1 d4 06 3c 4f 40 8c bc
       -0.053638108 -0.0180193 0.00822948 -0.017120508
000380 b2 bb 9c 3d 88 6f 9c bd 20 39 8b bd de 9c 6d bc
       0.076529875 -0.076384604 -0.06798005 -0.014502732
000390 25 a5 0d bd 04 d7 0b bd 46 3c 1d bd 78 ca 62 bc
       -0.034581322 -0.0341406 -0.03838756 -0.013842218
0003a0 a2 12 ab ba 26 ec 52 3d 6b 35 66 bd 6e 9a b8 bc
       -0.0013051818 0.05149474 -0.056203287 -0.022534575
0003b0 b0 21 59 3d 73 82 83 bc db 15 64 3d ee dd 55 bd
       0.053010643 -0.016053414 0.055684905 -0.0522136
0003c0 41 a4 aa bd 51 eb 64 bd 36 ec 45 3d fb 70 91 3c
       -0.0833211 -0.055888478 0.04832097 0.017754069
0003d0 a7 64 f0 bb 30 63 3b 3c 3e 99 9b 3d 24 9a b8 bd
       -0.0073362174 0.011437222 0.07597588 -0.09013775
0003e0 86 a1 b7 3c 37 ed 67 3c c8 26 0d bd 37 68 86 3d
       0.022415888 0.0141556775 -0.034460813 0.06562846
0003f0 0b 39 49 bc bb 28 95 bd 5b a8 e1 bc 26 81 92 3c
       -0.0122816665 -0.07283159 -0.027546098 0.017883848

conv.3.bias f4 [32]
000000 4c 5d 4e bd f8 00 91 bd 63 44 7d bd 35 06 d9 bc
       -0.050381944 -0.07080263 -0.061832797 -0.026492218
000010 9f 57 d9 bd 3d 03 a2 bd 38 c2 9e 3c 7e 4d b9 bc
       -0.106124155 -0.07910774 0.01937972 -0.022619959
000020 e2 9d 6e 3c 30 19 5e bc 91 dd f2 bc 8e 5b ec 3c
       0.014564009 -0.01355581 -0.029646667 0.02885225
000030 1e 06 10 bd e3 64 00 be 17 25 40 bd 4c cd 2c 3e
       -0.035162084 -0.12538485 -0.04691037 0.1687519
000040 d2 a0 cc bd 4a f2 43 bd b7 a5 d6 bd d0 00 ca bd
       -0.099916115 -0.047838487 -0.10480826 -0.09863436
000050 95 a0 9a 3d 3b 84 93 bd 2d 67 0f bc a8 d1 51 bd
       0.0755016 -0.07202955 -0.008752626 -0.051225334
000060 fc 73 bc bc 1d 00 fe 3c d9 63 9e bd 01 02 26 be
       -0.023004524 0.031005913 -0.07733888 -0.16211702
000070 e0 43 f8 bc 2b f2 c3 3d ba 2e f8 bd e6 93 91 bd
       -0.030305803 0.09567674 -0.121182874 -0.071082875

conv.6.weight f4 [64, 32, 3, 3]
000000 39 1d 56 be 05 bb 90 bb e7 a9 86 3d 45 6f ab 3c
       -0.20909585 -0.0044168257 0.06575375 0.02092708
000010 6f 84 4a 3c 1e 6a 6b 3c c8 ae 9f 3d cc 8c b9 bc
       0.012360676 0.014368562 0.07797009 -0.022650145
000020 09 c8 ed bb 2a 2b bd 3c 26 a3 48 bd ee 05 01 bd
       -0.007256512 0.023091871 -0.048983715 -0.031499796
000030 39 06 35 bd cd eb ab bb 3e ea c8 bb 9e 9c f1 bc
       -0.044195388 -0.0052466155 -0.0061314395 -0.029493626
000040 12 f1 45 3d e4 38 18 bb 56 e3 43 bd e8 60 5f 3d
       0.048325606 -0.0023227269 -0.047824226 0.054535776
000050 7d 03 ae 3d 1e 98 32 3d 2d 0b a9 bc bb 84 20 bc
       0.08496759 0.0436021 -0.020635212 -0.00979727
000060 b1 eb cf bc 80 f0 d6 bd 45 fd 3e bd 94 bf 67 3d
       -0.025380941 -0.104950905 -0.046628255 0.056579188
000070 4b 84 f2 3d 13 32 1a be 88 24 d3 3d 11 ba 92 bd
       0.11841639 -0.15058164 0.10309702 -0.071643956
000080 47 01 9e 3c 2a 7d 2d bc 2b 0a 65 bd 94 88 9b 3c
       0.019287718 -0.0105889235 -0.0559179 0.018986024
000090 a7 3f 0d bd 02 7d a3 3d 51 d7 c2 3b 04 fc 30 ba
       -0.03448453 0.07982828 0.005946078 -0.00067514204
0000a0 cd 57 07 3e e7 b3 c9 bd 9e 6d 6b 3c c7 62 8b bc
       0.13217087 -0.09848767 0.0143693965 -0.017014874
0000b0 3b f1 08 3e fa 8c 66 3d 6c 93 57 bd 97 a4 86 bc
       0.13373272 0.05628679 -0.052630827 -0.016435904
0000c0 bb 18 f5 3d d5 d0 fd bd 7e f3 c0 3a af b1 2b 3b
       0.119676076 -0.12393347 0.0014721004 0.0026198437
0000d0 df db d4 bd 70 66 93 3c 7b f9 9f bc 1e 2d ef 3c
       -0.103934996 0.017993182 -0.019528141 0.029196318
0000e0 a4 54 2f bd d6 8c ad 3d ba fc 86 bb 3d 10 be bd
       -0.04280533 0.08474128 -0.004119483 -0.09280441
0000f0 a9 ec c7 3d 13 80 c5 bd 6e 69 0f 3d bf 47 67 bd
       0.09761936 -0.09643569 0.035012655 -0.056464907
000100 77 a4 c0 3d 84 86 34 bd 18 1c 60 3d cd 49 0d 3d
       0.09406369 -0.044073597 0.054714292 0.03449421
000110 2d ff 02 be 3f 6d 20 bd ba 8f cf bd c9 2a 89 3d
       -0.12792654 -0.039166685 -0.101348355 0.06697614
000120 69 47 1e bd 9b a1 ec bc 31 50 bf bd b9 59 33 3c
       -0.03864232 -0.028885653 -0.09341467 0.0109466845
000130 8c 6e 0b 3d 6a 5c f3 bc 36 bb 87 bd 3a a5 7a bd
       0.034040973 -0.029707152 -0.066275045 -0.06119273
000140 f8 e0 5f bd e0 df b6 3c 52 18 97 3d 8d ea 90 bd
       -0.054657906 0.022323549 0.073776856 -0.07075987
000150 65 71 0c bd 1e 7f 8b 3d 0e 79 8a bd a5 db c3 bd
       -0.03428783 0.06811355 -0.067613706 -0.09563378
000160 c1 eb 3b be 7a 94 11 be 9e fa 00 bd 18 8d f3 3c
       -0.18351652 -0.14216796 -0.031489007 0.029730365
000170 e1 e7 50 3d ed e9 42 bd 9f 7c 17 be d9 35 00 be
       0.051002387 -0.04758637 -0.14793633 -0.12520541
000180 0f 74 bd bd 83 90 d7 bd 59 3b 5c bd 95 a4 0d 3c
       -0.09250652 -0.1052561 -0.053767536 0.008645196
000190 ed 53 d0 3d ee 94 a2 3a 0f 3c 0e 3d e9 61 10 3d
       0.101722576 0.0012404004 0.034725245 0.035249624
0001a0 34 d9 b6 bd 67 4b 26 3d 5a 54 d0 bd 25 6c 2a bd
       -0.08928147 0.040599253 -0.10172339 -0.04160704
0001b0 4c f3 20 be 5a e0 07 3e 4f 6f c2 ba 86 36 e1 bc
       -0.1571781 0.13269177 -0.0014834198 -0.02749182
0001c0 8c 4d 9e 3c 0f 16 23 bd ea e3 54 3b 2f 10 91 bd
       0.019324087 -0.03981596 0.003248448 -0.07083165
0001d0 e4 ab 8f bd 1e 2b e9 bd 14 fe bf 3d d2 04 29 bc
       -0.070152074 -0.11385177 0.093746334 -0.010316091
0001e0 1c 2b 38 bd 7a bd dc 3c 2f 97 b5 bd 37 fb 58 bd
       -0.044962987 0.026945818 -0.088667266 -0.052973952
0001f0 6b 94 de bc ec 86 6d bd 72 00 d2 bc 71 59 1e bd
       -0.02717038 -0.05799 -0.025634978 -0.038659517
000200 1b 87 b1 bc f6 5b f6 bc a5 1c a4 3c 8b 19 87 bd
       -0.021670869 -0.030073147 0.02003319 -0.06596669
000210 76 56 77 bc 77 0b 71 39 71 8a 73 bd 11 59 db 3c
       -0.0150962975 0.00022987822 -0.0594582 0.026775869
000220 71 cb 0c be a5 1c 2b be 58 c1 c2 bc b3 bc e6 b9
       -0.13749482 -0.16710146 -0.023773834 -0.0004400961
000230 f2 3a 37 bc d7 20 b9 bd bd d3 6d 3d d7 f8 cf 3c
       -0.011183487 -0.09039467 0.058063257 0.02538721
000240 74 4f 37 bd 67 23 d5 ba 3f c9 2c 3d 1b 00 16 bc
       -0.044753507 -0.0016261161 0.04218411 -0.009155299
000250 be 05 10 be fa 98 cf bd 99 ec 2a bd f9 1e a2 bd
       -0.1406469 -0.101366 -0.041729543 -0.07916064
000260 f6 ee 9a bd b7 ea f7 3b bf 8d 32 3e 36 2f ba bd
       -0.075651094 0.007565822 0.17436884 -0.09091036
000270 a2 2a 08 3e 7d 6c 64 3d f8 10 90 bd d0 bd 8b bc
       0.13297513 0.055767525 -0.070344865 -0.017058283
000280 ce 21 39 be ab 3b 1b 3e dd 81 dd bd 3a 88 82 3d
       -0.18079302 0.1515948 -0.10815785 0.063736394
000290 10 e3 93 3d 27 87 49 be dc 93 10 3d 8f 3b 95 3d
       0.07221043 -0.19680463 0.03529726 0.072867505
0002a0 10 ff f7 3b d9 70 8d bd 8f fe 2b be da e5 26 be
       0.0075682476 -0.069062896 -0.16796325 -0.16298619
0002b0 e5 e6 b0 3c d2 90 83 3d 99 6a a3 bd 5a 58 b3 3c
       0.021594474 0.06424107 -0.07979316 0.021892715
0002c0 2a 61 24 3c 9b 13 aa bb 76 cd 47 bd e3 d3 9e bd
       0.010032931 -0.0051903254 -0.048779927 -0.07755258
0002d0 bc 0d 94 be cd 51 c9 bd 23 35 eb 3d 6e 9c 49 bd
       -0.28916728 -0.098300554 0.114847444 -0.04922145
0002e0 2c 88 7d 3d 7c 2d 09 3e 46 6a 9f 3d b1 44 c7 3c
       0.06189744 0.13396257 0.07783942 0.024324747
0002f0 f8 a7 97 bd 4b 7c cb bd b0 25 7c 3d ab b6 7c 3e
       -0.07405084 -0.099358164 0.06155938 0.24679057
000300 b7 84 07 be 6f 82 14 3e 95 37 98 3d bb e7 b8 3c
       -0.1323422 0.14502881 0.074324764 0.022571435
000310 39 2e 0e 3b b7 17 7e bc 14 ce cf 3b 4d 05 2d 3d
       0.0021695031 -0.015508584 0.006341705 0.042241383
000320 2d 14 79 3a 9c 48 9b 3d ba 6f a6 bc 37 a0 53 bd
       0.00095016026 0.075822085 -0.020316947 -0.051666465
000330 8b f3 35 3d f8 d2 22 be 4c 20 cf bc 0b 54 0a be
       0.044421714 -0.1590079 -0.025283955 -0.13508622
000340 63 34 bb 3d 35 ad d0 bd dc f0 19 3e 77 62 e2 3c
       0.09140851 -0.101892866 0.15033287 0.027634842
000350 65 ca 0c bd c5 03 8f 3d e3 7e 92 bd 95 e2 01 bd
       -0.034372706 0.06983141 -0.07153108 -0.031710226
000360 dd d9 d7 3d 70 2a bc 3c 55 8d 00 be d7 ec 2c 3e
       0.10539601 0.022969455 -0.12553914 0.16887222
000370 8b 04 ec bd c0 70 73 bc 12 74 58 3d 3d 14 43 bd
       -0.11524304 -0.014858425 0.05284507 -0.047626723
000380 5e 5f 62 3d f8 dd 08 3d 9b 75 30 bd 10 52 94 bd
       0.05526673 0.03341481 -0.043080907 -0.07242215
000390 fc 43 24 bd 75 3f 3a 3d 1f ac 73 bd 9a 04 b7 bc
       -0.040103897 0.045470674 -0.05949032 -0.022341061
0003a0 10 6f c1 bd c9 0b fe bd c2 32 1d bd 65 d9 8b 3d
       -0.094450116 -0.124045916 -0.038378485 0.06828574
0003b0 f7 db 03 3d 05 61 5a bd 66 c0 e6 bd 5c 3d c3 3c
       0.032192197 -0.05331518 -0.11267166 0.02383297
0003c0 c4 39 cc bb a9 ff 07 bc 5c 1c 1e bd ec 8a dd bb
       -0.006232472 -0.0083007 -0.038601264 -0.0067609455
0003d0 0e 7f 54 bd 86 e9 66 ba cf de fc bc 4e 10 92 bc
       -0.05187898 -0.00088086014 -0.030867962 -0.01783004
0003e0 e9 7a 9e bd 37 54 ef bd e2 7b c0 b8 64 d4 11 be
       -0.07738287 -0.116859846 -9.1783484e-05 -0.14241177
0003f0 df 09 d1 ba 9f f0 45 bd 37 c0 43 bc 95 99 f8 bc
       -0.0015948376 -0.048325177 -0.011947683 -0.030346671

conv.6.bias f4 [64]
000000 23 39 9d bd 08 e3 9d bd fd 7c 0b bd 90 b7 84 bc
       -0.076769136 -0.077093184 -0.034054745 -0.01620081
000010 8f a2 4b bd e0 8e 9a bc 80 a5 67 bd 31 40 5c bd
       -0.049715575 -0.018866956 -0.056554317 -0.053772155
000020 d0 1b b5 bd dd 87 0f 3c 85 a6 04 bd 7d cd 06 be
       -0.088431954 0.00876042 -0.032385368 -0.13164325
000030 ff b9 a9 bd bd 77 a6 3b 25 d2 90 bd 58 2b 58 3d
       -0.08287429 0.005080192 -0.07071332 0.05277571
000040 bb d2 a8 3c 85 1a 16 bd 88 f8 78 bd 98 5b e4 3b
       0.020608297 -0.036646385 -0.060783893 0.0069689266
000050 74 53 b4 bd f3 68 9b bd 78 e8 f3 bd 41 df 18 be
       -0.0880498 -0.07588377 -0.11909574 -0.14928915
000060 c0 e2 08 3c 0a 0b d3 bd d0 4f 26 bd 0e 8e 7f 3d
       0.008354843 -0.1030484 -0.04060346 0.062391333
000070 37 27 79 bd 5f 5d 5f bd c8 2d 2d ba f5 a2 fd ba
       -0.060828414 -0.054532405 -0.0006606248 -0.0019350933
000080 10 ea 4d bd 4f 68 ca bc ec c2 b3 bd 33 5d b4 3b
       -0.050272048 -0.024707941 -0.08777413 0.0055042743
000090 ed 50 82 bd cc 80 82 bd ea 24 69 bb 81 b7 61 bd
       -0.063630916 -0.06372222 -0.003557498 -0.055106644
0000a0 57 7a 9f bc 25 d2 37 bd 74 c6 8c 3b 1c aa 58 bd
       -0.019467516 -0.044878144 0.0042961184 -0.052896604
0000b0 b9 16 f4 3d 1f 34 67 bd 72 fd bb ba e0 5e 15 be
       0.119183965 -0.05644619 -0.00143425 -0.14586973
0000c0 8e 46 85 bd aa 64 fd bd 0c b1 88 bd ce 22 26 bd
       -0.06507598 -0.12372716 -0.06674394 -0.040560536
0000d0 02 38 cc bd 38 00 d9 bd fb ee 53 3d e8 a6 9e bc
       -0.0997162 -0.10595745 0.05174158 -0.019366696
0000e0 8f aa 84 bd 9e 26 b5 3d 3e 2a 88 bd 5b 91 69 bb
       -0.06477844 0.08845256 -0.06648682 -0.0035639617
0000f0 fa 64 19 3a 00 58 8a bd a2 c4 88 bd c9 7b 64 3d
       0.00058515335 -0.06755066 -0.0667813 0.055782113

fc.1.weight f4 [128, 576]
000000 11 3c 0f bd b6 1d 3c 3d 11 00 c9 3b db 23 a2 bd
       -0.034969393 0.045926772 0.006134041 -0.07916995
000010 9a f1 4d 3d f4 e5 66 bd 12 ab 2f 3d fb 5d 8c 3d
       0.050279237 -0.056371644 0.042887755 0.06853863
000020 21 1f d0 bb 08 05 a4 bc 52 92 84 3d 64 0d 6a 3d
       -0.006351367 -0.02002193 0.06473221 0.057141677
000030 e4 f3 ab 3c 3b 24 82 3d be 54 c4 bc 44 91 f4 bb
       0.02099032 0.06354567 -0.02396619 -0.007463606
000040 83 d5 2a bc 24 5b f5 bb d0 93 08 bc ff ed 44 bb
       -0.010426882 -0.0074876714 -0.0083360225 -0.0030049083
000050 03 f0 f4 bc 78 0c 0d 3e d9 65 89 3b 14 32 bc 3c
       -0.029899603 0.13774288 0.0041930494 0.022973098
000060 f9 40 e4 3d ad e3 0b bc 42 5e 8b bd f5 83 2b 3d
       0.11145205 -0.008538169 -0.068050876 0.04187389
000070 b4 11 21 3c dc 2b f4 3b 8a 49 13 3e cc 5c 05 3d
       0.009830881 0.0074515175 0.14383522 0.0325592
000080 cc d2 49 3d 6a b9 a6 bd d3 62 ac 3d 4b 89 1b bd
       0.049273297 -0.08140834 0.08417287 -0.03797273
000090 e9 40 d6 3c fe e9 83 3c 95 21 1f 3d ab c4 d9 bd
       0.026153998 0.016102787 0.038850386 -0.106332146
0000a0 42 03 8d 3d db ab 58 bc b8 14 27 bd 66 3d 2e b8
       0.06885387 -0.013224567 -0.040791243 -4.1542015e-05
0000b0 02 6c c2 3c c2 63 86 bd 85 a3 06 bc 99 56 49 3e
       0.023733143 -0.06561996 -0.008217697 0.1966194
0000c0 de 57 35 3c 1e f4 b2 bd 7e e0 05 3e 9a 78 b6 bd
       0.011068312 -0.08737968 0.13073918 -0.08909722
0000d0 f0 3a 7f bd 5a 2e f6 3c eb c1 38 bd 10 6e b4 3c
       -0.062312067 0.030051399 -0.04510681 0.022025138
0000e0 6d b2 7b bd 97 17 e6 3c 86 0e 00 bd 13 a1 2e be
       -0.061449457 0.02808742 -0.03126385 -0.17053632
0000f0 67 17 66 3e 90 cb 3d 3d b5 4d da bc 29 43 03 bc
       0.22469865 0.04633671 -0.026648382 -0.008011618
000100 8a 63 2d bd dd 1a 08 3e bb b5 b6 bd 3b 53 95 bd
       -0.042331256 0.13291498 -0.08921381 -0.072912656
000110 d6 f6 3e 3e bc 40 cd bc 59 8c 7e bd 14 51 ad 3c
       0.18648848 -0.025055282 -0.062145565 0.021156825
000120 70 78 ce bc 9f aa 8f bc a4 84 ba 3c 11 95 ed 3d
       -0.025203913 -0.017537413 0.022768326 0.11600698
000130 24 c3 e9 bd b6 e7 76 bd 6c 98 cc 3d 42 dc 5c bd
       -0.11414173 -0.06027957 0.0999001 -0.05392099
000140 30 01 e6 bc e2 11 93 bc f6 9a 84 3e 02 0a ae 3d
       -0.028076738 -0.017952863 0.25899476 0.084980026
000150 28 37 d8 bc bd 19 6c b8 cd c8 86 3d 79 bf 4c 3b
       -0.026393488 -5.6290755e-05 0.065812685 0.0031242056
000160 e8 13 f0 3c aa c4 6c 3c 51 c7 52 3d 2d ba 4a 3d
       0.029306367 0.014451185 0.051459614 0.049493957
000170 43 f3 74 bd d6 2b 44 3c 45 5f fc bb 2e 33 9b bd
       -0.059802305 0.011973342 -0.0077017867 -0.07578121
000180 4a fd 88 bc 11 39 ff 3c e4 22 00 3d 61 b0 26 bd
       -0.01672234 0.031155141 0.031283274 -0.04069555
000190 47 c0 64 bd a5 ba ab bd 28 de 2b bb a5 61 02 bd
       -0.055847432 -0.08385209 -0.0026224945 -0.031831402
0001a0 87 3c cc bc 46 6d 67 bd e6 20 2b 3e ab 88 1b 3c
       -0.024931205 -0.056500696 0.16711769 0.009493033
0001b0 11 9b 0a bd 0b 92 eb bc 4b 0e 71 3d 66 ac 11 3d
       -0.03383929 -0.028756162 0.05885152 0.035564803
0001c0 49 ca 4c be 75 e2 4e 3e 2d 09 f5 3d 13 40 01 3d
       -0.1999904 0.20203574 0.11964641 0.031555247
0001d0 45 9c b2 bd b9 02 be bc ea cc 35 bc bc ca 15 bd
       -0.08721212 -0.023194658 -0.011096219 -0.036570296
0001e0 35 5f b3 3c 04 63 4a 3c b5 6c a3 bc 35 0b 78 3b
       0.021895984 0.012352709 -0.019949296 0.0037848477
0001f0 ce b9 bf bc b3 75 14 bb f5 23 31 bd c3 29 af bc
       -0.023404028 -0.0022653162 -0.043247182 -0.021382218
000200 23 ff bd 3d e0 97 dc bb b7 b4 82 3b 6e bd a7 3c
       0.09277179 -0.006731972 0.003988828 0.02047607
000210 12 da 29 bd 66 bf 98 bd 34 94 22 3d a5 66 69 bd
       -0.041467734 -0.07458381 0.03969212 -0.056982655
000220 5e ee 8f 3d dd 8f 59 3c 0f 5d 11 3e 35 bb 77 bd
       0.07027887 0.013278929 0.14195655 -0.06048127
000230 4e 13 77 3d 56 48 00 bc 32 e9 81 3d 66 e3 58 bd
       0.060321145 -0.007829746 0.063433066 -0.05295124
000240 77 39 1c be dd d3 99 bc f9 ea 2b 3a ea a2 40 3d
       -0.15256296 -0.018777782 0.0006558146 0.047030367
000250 43 23 2d bd b6 a3 76 3d f0 b6 8f 3d c1 ea 41 3d
       -0.042269956 0.06021472 0.070173144 0.04734302
000260 67 92 91 3d da a6 c2 bc b5 03 84 bd 3d 4f 7d bd
       0.07108002 -0.023761202 -0.064460196 -0.061843146
000270 27 d6 d2 3d e4 68 d4 3c 24 a0 59 3d f1 1e a2 3d
       0.102947526 0.025928922 0.053131238 0.07916058
000280 b6 da da 3d 37 ed ad 3d 46 1b 6a 3d 82 ef 29 bd
       0.10686247 0.08492511 0.057154916 -0.041488178
000290 dc a1 cc 3c 45 27 fe 3d 78 53 d1 bd 49 78 bb bd
       0.024979524 0.12409834 -0.102209985 -0.09153802
0002a0 4b 69 a4 3a 69 e9 19 3d 3a fc 8f bd 6b d9 16 3d
       0.0012543587 0.037576113 -0.0703053 0.03682844
0002b0 c9 fd fb 3d c9 6e 39 3d 24 93 3e 3b 69 8f 05 bc
       0.12304265 0.04527167 0.0029079402 -0.008151867
0002c0 9c 41 90 3c 8a 31 48 3c dd 9e 11 bc 43 c1 03 be
       0.01760941 0.012218842 -0.008887974 -0.12866692
0002d0 94 6e 1e 3d 75 ea 9b bc bb 74 07 3c b7 d5 87 bd
       0.038679674 -0.019032696 0.008267577 -0.0663256
0002e0 c3 dc fb 3b c3 5e 9f bd cd c9 e4 bd 15 22 26 3d
       0.007686229 -0.07781746 -0.11171303 0.040559847
0002f0 4b 13 13 bd 00 64 02 3d fe c9 c4 bb 8e 90 ae bc
       -0.03590707 0.03183365 -0.0060055247 -0.021309163
000300 6d cf 17 3e 42 69 ab 3c 71 d1 64 bc c8 46 7f 3e
       0.1482522 0.020924214 -0.01396595 0.24929345
000310 a6 47 a0 bd 8e 8d d8 bc aa eb 00 3d 17 76 ea bc
       -0.07826166 -0.026434686 0.031474747 -0.028620763
000320 cb 27 35 bd 55 e2 c0 bd 32 8e 1e 3c d9 d8 08 3e
       -0.044227403 -0.094181694 0.009677457 0.13363971
000330 5c 92 27 bd 52 d8 15 3d e5 cc 82 3d f4 4a 75 bd
       -0.040911064 0.036583252 0.06386737 -0.059885934
000340 2d e0 61 bd a9 1f 8e bd 1f a2 80 bd 49 02 a5 bd
       -0.05514543 -0.069396324 -0.06280922 -0.080570765
000350 eb 9b 9a bd 0b aa 23 be 18 e5 d0 bc 1c 78 02 bc
       -0.0754927 -0.15982835 -0.025499865 -0.007963207
000360 de d4 65 bc 79 a5 01 3e a9 0d c3 bc 0b ef 28 3e
       -0.014027802 0.12660779 -0.023810225 0.16497438
000370 f5 8f b5 3d d9 66 56 3d ff 6d 22 3e e4 ea 89 bc
       0.08865348 0.052344177 0.15862273 -0.016835637
000380 88 d2 d6 bd 3b 87 97 bc 27 44 22 3d 93 75 97 3c
       -0.104893744 -0.0184971 0.039615776 0.018488681
000390 94 80 07 3d 93 49 bf bd a5 03 64 bd 67 16 de 3c
       0.033081606 -0.09340205 -0.05566754 0.027110292
0003a0 c1 92 d4 3c cd a2 d5 bd e7 b5 0f 3e 3c b4 35 3a
       0.025948884 -0.104314424 0.14034234 0.0006931459
0003b0 fa 1f 15 bb 78 03 33 3e ce c2 24 bc f2 32 94 bc
       -0.0022754655 0.17481792 -0.010056211 -0.018090699
0003c0 db 1f 8f bb 52 25 12 3d 54 fe 20 3c 9a 70 56 3e
       -0.004367811 0.035680123 0.009826262 0.20941392
0003d0 29 4d 29 3e e9 5f 43 bd d9 63 76 3e 88 44 44 3d
       0.1653334 -0.04769889 0.24061526 0.04791692
0003e0 30 04 98 3b 52 30 17 bd 7f bc 20 3d c7 c3 b5 bd
       0.004639171 -0.036911316 0.039242264 -0.08875232
0003f0 c7 32 bf 3c f0 00 6c 3c 0e e0 00 3d 4a 31 a9 3c
       0.023339642 0.01440452 0.031463675 0.020653386

fc.1.bias f4 [128]
000000 17 f7 75 bc ce c5 42 bc ee c1 65 bd ce c7 8e 3d
       -0.015012524 -0.011887981 -0.05609315 0.069717035
000010 f6 ca da bc 5c b0 57 bd 4d 78 b9 3c 30 5f 40 3d
       -0.026708107 -0.052658424 0.022640372 0.046965778
000020 1a 1e 96 bc 39 1e 27 bb f5 e0 f9 bb eb 3e e0 bc
       -0.0183249 -0.0025500192 -0.007625694 -0.027373752
000030 74 aa 02 3c dd fc 32 bd a6 5d ad bc 2c ad 8f 3d
       0.0079752095 -0.04369818 -0.02116282 0.07015452
000040 88 92 ae bc df 38 88 bc 6d 6e 7f 3c 62 1b 45 bd
       -0.021310106 -0.01662868 0.015590292 -0.048121817
000050 77 13 cf bb 4b 1a 7a bc d5 40 98 bd 3c 14 02 bb
       -0.006319459 -0.015265058 -0.07434241 -0.0019848486
000060 b3 dd 83 bd 36 37 58 bd a1 b4 5a bd 0d da 6c bc
       -0.0643877 -0.05278703 -0.053394917 -0.014456284
000070 99 9b 9e 3c 8a 6e 11 bb d2 54 26 bc a5 49 cf 3c
       0.019361304 -0.002219113 -0.010152059 0.025303671
000080 ad d5 15 bd 85 f3 8d bd 98 f8 ce 3c 31 93 db 3c
       -0.03658073 -0.06931213 0.025265023 0.026803585
000090 fe 81 cc bb 0e 18 10 bd c5 4d 55 bd 0b 27 20 bd
       -0.006241082 -0.03517919 -0.05207612 -0.039099734
0000a0 8b 83 f1 ba 2f 49 1b bd bd 30 fd 3c f5 07 ef 3b
       -0.0018426044 -0.03791159 0.03090703 0.0072946497
0000b0 42 ba 28 3d 38 19 bd bd 9b 26 8e 3c 77 4d 90 bc
       0.041193254 -0.09233326 0.017352393 -0.017615063
0000c0 1f 0a 62 bd 80 16 0d bd 7f 3d 05 bd f5 5c 18 bd
       -0.055185433 -0.034445286 -0.03252935 -0.037198026
0000d0 8a 34 a9 3c f2 d1 a2 3b 1e 07 38 bc 64 22 a0 3c
       0.020654935 0.004968875 -0.011232166 0.019547649
0000e0 01 2a 73 bb fd e1 06 3d 29 cd 04 bd 0e fd 36 bd
       -0.0037103894 0.032930363 -0.03242222 -0.044674926
0000f0 29 51 04 bd 23 45 6f bd 7a f9 0e 3c eb d3 3b bc
       -0.032303963 -0.058415543 0.008726472 -0.011464099
000100 27 be f9 bb 7a f4 cb bc 4b c4 8f bd 8b 67 1a 3d
       -0.007621545 -0.024896849 -0.07019862 0.037696403
000110 a8 82 98 bc 4b 75 58 bd 30 ab 33 bd f0 0b 52 bd
       -0.01861699 -0.052846234 -0.04386443 -0.051280916
000120 1f d8 0c b9 30 93 53 bd 71 db bb bc 2b ae 39 ba
       -0.00013431952 -0.05165404 -0.022931786 -0.0007083143
000130 67 b7 82 3c 82 f0 2b bd 44 a0 68 bc ad fa 94 bc
       0.015956594 -0.041977413 -0.014198367 -0.018185938
000140 fc 61 23 3d 49 ad f1 bc 07 59 b9 bc e5 5b 2b 3d
       0.039888367 -0.029501574 -0.02262546 0.041835684
000150 5b f4 92 bc 8c e4 6e 3d 20 a4 b9 3c c5 bd 39 3c
       -0.017938783 0.058323428 0.022661269 0.0113367485
000160 99 64 8e bc 98 b1 26 bd 48 0d 07 bc e7 1a a3 bc
       -0.017381953 -0.04069671 -0.008242913 -0.019910289
000170 3b 5e 02 3d 87 b8 41 bb fd 4c c5 3c a5 60 35 bd
       0.031828146 -0.002955945 0.024084562 -0.04428162
000180 08 6b 87 3c 52 b1 00 bc 6a d3 f8 3c 79 71 0e 3d
       0.016530529 -0.007854776 0.030374248 0.034776185
000190 a7 1d 1a 3d 26 38 e2 3b 17 df 2b 3c a8 4b 74 3d
       0.037625935 0.006903666 0.0104902005 0.059642464
0001a0 a2 d9 5f bd ce 3b c3 ba a2 db 05 bd 22 9f 2e bd
       -0.05465091 -0.0014895143 -0.03268016 -0.04263223
0001b0 14 c8 5c 3c 07 1b d0 bc 8d 83 85 bd f0 7a 83 bd
       0.013475437 -0.025403513 -0.06519232 -0.06419933
0001c0 5d 90 6b 3d 14 e2 95 bd c2 b9 db ba 4d 06 97 3c
       0.057510722 -0.073185116 -0.0016763734 0.018435622
0001d0 8b 7d 0e bc c2 2b cf bb 06 f3 4a bd b6 d5 42 3c
       -0.008696924 -0.006322355 -0.04954817 0.011891773
0001e0 14 34 b0 bc 4f 4e 81 3d 56 f4 bb 3c d8 c9 24 3d
       -0.021509208 0.06313764 0.022943657 0.040231556
0001f0 1f c0 29 bb 84 12 2f bd 45 a2 f9 3c 6a 9a 64 3c
       -0.0025901867 -0.042742267 0.030472884 0.013952831

fc.3.weight f4 [6, 128]
000000 01 6c 65 be 49 8e 79 bd a1 07 6c bd be a8 0e be
       -0.22404481 -0.06092671 -0.057624463 -0.13931558
000010 49 8a 95 3c 9d a9 af bc 40 89 56 bd 5f a7 69 3d
       0.018254416 -0.021443183 -0.052376986 0.057044383
000020 4f cd ce 3c 55 53 27 bd 24 ec 51 bd 8c f1 04 bc
       0.025244383 -0.040850956 -0.051250592 -0.00811423
000030 60 96 c6 bd 69 8d 81 3d 84 f0 f9 bc 27 ed 77 3d
       -0.096966505 0.063258 -0.030510195 0.0605289
000040 90 1c e2 3c 91 38 49 bd dd 0c 04 bc c3 a3 75 bd
       0.02760151 -0.04912621 -0.0080597075 -0.05997063
000050 63 fa 05 bd dc 3d 4c bd ac d5 8c 3e ba c2 e9 bc
       -0.03270949 -0.04986368 0.2750677 -0.028535236
000060 ed b8 04 3e 45 4f 09 3e cc 7f 1a bb f2 68 a1 3d
       0.12961169 0.13409145 -0.0023574708 0.07881345
000070 dd 9e 43 3d 00 22 3a bd 56 22 13 3e be d5 17 3d
       0.047758926 -0.04544258 0.14368567 0.037069075
000080 3f a5 56 3d 0e 99 f1 3d e9 05 6a bd d8 9e e8 3d
       0.052403685 0.11796771 -0.057134543 0.11358422
000090 23 8e 15 3e 2b 93 08 be f8 b3 24 3d 22 a7 4d 3c
       0.14605002 -0.1333739 0.040210694 0.012552055
0000a0 9f a6 93 bc eb a4 1e bb 81 71 99 bd 86 34 7a 3d
       -0.018023787 -0.0024207185 -0.07492352 0.061085247
0000b0 fb bc 80 bd 5d 1c 90 3e b4 51 b6 bc 1c 79 c4 bc
       -0.06286045 0.2814664 -0.022255756 -0.02398353
0000c0 17 26 92 3c 8c 69 77 bd 28 76 c9 3d 70 23 04 3d
       0.017840428 -0.06040339 0.0983699 0.03226036
0000d0 bc f9 41 bc 25 32 a9 3d b9 25 df bd 4e 88 da bd
       -0.0118393265 0.082615174 -0.10895867 -0.10670529
0000e0 34 d3 97 3d da a0 02 be 99 3c 68 bd 0f 17 c8 bd
       0.07413331 -0.12756673 -0.056698415 -0.09770023
0000f0 9d ad 06 bd 62 49 34 3d 1f b1 09 3c 88 62 f4 3c
       -0.032880414 0.044015296 0.008404045 0.02983214
000100 2e ef 21 bd 69 e6 7f bc f4 a5 e9 3c 72 25 23 3d
       -0.03953474 -0.015618899 0.028521515 0.039830633
000110 96 38 bb 3d b0 2c 35 3d d9 e8 1e 3c 85 8f 47 3c
       0.09141652 0.04423207 0.00969907 0.012180214
000120 b2 c6 a6 3d 7d f0 5e 3d dd 18 3c 3e 29 d3 d4 3d
       0.08143367 0.054428566 0.1836886 0.10391838
000130 25 b8 10 3d 7a 42 a4 bd 15 d2 9b bd 74 c4 85 bd
       0.035331864 -0.08020492 -0.07608429 -0.06531611
000140 d9 3e 95 3d 55 01 db 3c 30 7d 34 3e 61 02 e5 bd
       0.07287378 0.026734034 0.1762588 -0.11182094
000150 47 1d 7e bd cb 85 0f be 4d 9b 24 be 30 09 73 bc
       -0.06203964 -0.14015882 -0.16074868 -0.014833733
000160 37 04 90 bd 8a 20 e8 3d 00 ac 30 3c 21 f7 8a bc
       -0.07032054 0.11334331 0.0107831955 -0.016963543
000170 03 a5 52 be 14 71 c1 3b 6c e0 36 3c 11 c1 29 3d
       -0.2057076 0.0059033725 0.011161905 0.041443888
000180 fe 17 66 bc a8 01 78 3c dd b4 b6 bd 49 d8 b3 3d
       -0.014043806 0.015137114 -0.08921216 0.087814875
000190 7c 08 a4 bd a6 e4 d3 3c fd 55 16 3d 74 a4 31 be
       -0.08009431 0.025865864 0.0367031 -0.1734789
0001a0 7e 8d 40 3d f5 45 9f 39 cb 8b 6f bd 1d 94 97 3d
       0.047009937 0.00030378965 -0.058482926 0.07401297
0001b0 ff 39 88 3d 74 d5 c4 bd 66 b6 53 3d 62 59 1e 3d
       0.06651687 -0.096110255 0.05168762 0.03865946
0001c0 ed fb 02 be f3 20 04 be 03 ee 7a 3d f4 ba b8 3d
       -0.12791415 -0.12903194 0.061262142 0.090200335
0001d0 fb 30 0e be e3 51 7c 3c 37 b4 5d bc 46 35 e3 bc
       -0.13885872 0.015400383 -0.013531736 -0.027735364
0001e0 2e 7e 6f 3b 30 93 3f be 1a 4c 2c bd db 2b 43 bd
       0.0036543715 -0.18708491 -0.042064764 -0.047649246
0001f0 88 09 2b bd ae b5 f5 3c 49 fb 55 3a d3 e8 9d bd
       -0.041757137 0.029993858 0.00081627496 -0.07710423
000200 45 47 ce 3d 6c 11 3c 3d df cb 08 3d e7 42 31 bc
       0.10072187 0.045915052 0.03339755 -0.010819173
000210 ee 00 35 be 76 72 b3 3c 2a 39 ee bd cd 97 d8 3d
       -0.17676136 0.021905165 -0.11631997 0.10575829
000220 a1 09 50 bd c4 1f 4a 3d 41 e9 65 3d 18 ee 9b 3d
       -0.050790433 0.0493467 0.05613065 0.07613772
000230 99 de 51 3d 54 bc e4 3b d2 c8 3a bc 46 05 11 3e
       0.051237676 0.0069804583 -0.011400418 0.14162168
000240 17 31 c5 3a 00 d1 b3 bc a3 b6 9a bd 89 6d 5a bd
       0.0015044537 -0.021950245 -0.075543664 -0.053327117
000250 c5 30 96 bd 39 8f 54 3d 18 48 a0 3d b5 62 ea bd
       -0.07333521 0.0518944 0.07826251 -0.11444608
000260 af 02 46 be d3 2b 17 3d ae 02 e5 bc 83 ab 23 bc
       -0.19336961 0.03690703 -0.02795538 -0.009989622
000270 7a b8 56 3e 5d 57 cd bc d7 67 ee 3d 99 c1 df 3d
       0.2096881 -0.025066072 0.116409 0.10925598
000280 a0 f3 8b 3e 24 cd 2c be b3 06 6f be b8 89 8c 3d
       0.2733431 -0.1687513 -0.233424 0.06862205
000290 6f c9 06 bd e3 11 0e be 90 bd d8 bd 7b 8d 95 be
       -0.032906946 -0.1387401 -0.10583031 -0.29209504
0002a0 58 d0 17 3c 3e df e1 3c 22 13 aa bd 94 4d e4 bc
       0.009265982 0.02757227 -0.083044305 -0.027869023
0002b0 5a 1f 61 bd c7 70 f5 3d e9 9b 20 be 55 37 e4 3c
       -0.05496154 0.11984401 -0.15684475 0.027858416
0002c0 d1 b1 58 be 6c 37 e3 bd cc f7 1d 3b dd 0a 2b bc
       -0.21161582 -0.11094555 0.0024103997 -0.010439602
0002d0 eb f7 ef 3c 04 1d b6 3c 9e fa 43 3e 78 d1 11 3d
       0.029293021 0.022230633 0.19138572 0.035600156
0002e0 bd 32 17 3e 3b cf 8a 3d 3d 55 d5 bc c8 36 86 3c
       0.14765449 0.06777807 -0.026041621 0.016383544
0002f0 74 fc 86 3d 8d 30 a6 3c c0 97 ca bc 41 27 89 bd
       0.0659112 0.020286823 -0.024730563 -0.0669694
000300 c5 13 28 be e7 86 e0 3a b4 6e 78 bb 28 5f 97 3c
       -0.16413791 0.0017130048 -0.003790778 0.018477991
000310 b4 4f 29 be 9d 28 12 bd 39 61 77 bd 42 10 71 bd
       -0.1653431 -0.035683263 -0.060395453 -0.058853395
000320 0f 92 10 3d 3d 79 62 3d 92 0d b5 3d 26 6c 9c 3d
       0.035295542 0.055291403 0.08840479 0.07637815
000330 12 f0 22 3e de 40 e0 bd a9 07 bb bd 6a 4d 8e bd
       0.15911892 -0.109498724 -0.091323204 -0.06948359
000340 5c 29 a9 bc 11 96 a5 bd 74 8e 6c bc a7 33 51 be
       -0.020649604 -0.080852635 -0.01443826 -0.2042986
000350 aa e7 c5 3d f2 83 87 3d bf ae b8 bc 8c 05 72 3a
       0.09663327 0.066169634 -0.022544263 0.0009232394
000360 fd 05 12 be 15 da 80 3c 8c 3e 0d be 2b ed a9 bd
       -0.14260097 0.01572899 -0.13793391 -0.08297189
000370 60 23 a5 3d 51 dd 9e bd ad 89 c9 3c 28 78 77 3d
       0.08063388 -0.077570565 0.024601782 0.060417324
000380 89 e1 32 3c 8c 0e 50 bc f3 8a 72 bd 06 d1 62 3d
       0.01091803 -0.012698781 -0.059214544 0.05537512
000390 13 46 ea bd 7c 3a 89 bc 10 2a 80 bc 76 76 8b 3c
       -0.11439147 -0.01675152 -0.015645057 0.01702426
0003a0 0e 5f 87 bd 7a fd ce bd 56 9c fd 3d 5d 4f 33 be
       -0.06609927 -0.101069406 0.12383334 -0.17510743
0003b0 a2 bd 9a bc 2b 8a 69 3d 6c 1f 27 bd cd 36 59 be
       -0.018889252 0.057016533 -0.04080145 -0.21212311
0003c0 87 61 21 3d 08 88 d8 bd 3c 81 9c 3c 99 4a 78 3d
       0.03939965 -0.10572821 0.019104593 0.060618017
0003d0 6e 94 33 be 64 bb 50 bc a3 80 c6 bc 3c 96 85 3e
       -0.1753709 -0.01273999 -0.02423126 0.26091182
0003e0 6c 09 41 3d 93 7c 8f 3d 6b c7 b1 bc 9a 88 45 bd
       0.047128126 0.070061825 -0.021701535 -0.048225977
0003f0 a6 6f e6 bd e4 f5 62 3b 16 30 da 3d 17 f4 5c 3d
       -0.11251764 0.0034631426 0.10653703 0.05394372

fc.3.bias f4 [6]
000000 2b 66 2e 3c 25 65 b9 3b 6b 4a bd 3d 9f e8 8b bd
       0.010644476 0.0056578093 0.0924271 -0.06831478
000010 85 72 db bc 18 da d9 bd
       -0.026788006 -0.10637301
